python code/gnnuf_train_model_v0_12.py

Seed set to 2674
Run on CUDA

GAEModel(
  (gae): GAE(
    (encoder): SimpleSparseGINEEncoder(
      (onehot_enc): Sequential(
        (0): Linear(in_features=1, out_features=4, bias=True)
        (1): LeakyReLU(negative_slope=0.01)
        (2): Linear(in_features=4, out_features=32, bias=True)
        (3): LeakyReLU(negative_slope=0.01)
        (4): Dropout(p=0.2, inplace=False)
        (5): Linear(in_features=32, out_features=256, bias=True)
      )
      (gineconv_1_lin): Sequential(
        (0): Linear(in_features=256, out_features=256, bias=True)
        (1): LeakyReLU(negative_slope=0.01)
        (2): Linear(in_features=256, out_features=256, bias=True)
      )
      (gineconv_1): GINEConv(nn=Sequential(
        (0): Linear(in_features=256, out_features=256, bias=True)
        (1): LeakyReLU(negative_slope=0.01)
        (2): Linear(in_features=256, out_features=256, bias=True)
      ))
      (gineconv_2_lin): Sequential(
        (0): Linear(in_features=256, out_features=256, bias=True)
        (1): LeakyReLU(negative_slope=0.01)
        (2): Linear(in_features=256, out_features=256, bias=True)
      )
      (gineconv_2): GINEConv(nn=Sequential(
        (0): Linear(in_features=256, out_features=256, bias=True)
        (1): LeakyReLU(negative_slope=0.01)
        (2): Linear(in_features=256, out_features=256, bias=True)
      ))
      (gineconv_3_lin): Sequential(
        (0): Linear(in_features=256, out_features=256, bias=True)
        (1): LeakyReLU(negative_slope=0.01)
        (2): Dropout(p=0.2, inplace=False)
        (3): Linear(in_features=256, out_features=256, bias=True)
      )
      (gineconv_3): GINEConv(nn=Sequential(
        (0): Linear(in_features=256, out_features=256, bias=True)
        (1): LeakyReLU(negative_slope=0.01)
        (2): Dropout(p=0.2, inplace=False)
        (3): Linear(in_features=256, out_features=256, bias=True)
      ))
      (post_lin): Sequential(
        (0): Linear(in_features=256, out_features=32, bias=True)
        (1): LeakyReLU(negative_slope=0.01)
        (2): Linear(in_features=32, out_features=8, bias=True)
      )
    )
    (decoder): InnerProductDecoder()
  )
)

GPU available: True (cuda), used: True
TPU available: False, using: 0 TPU cores
HPU available: False, using: 0 HPUs

Finding best initial lr:  80%|██████████████████████████████████████████████████████████████████████████████████████▍                     | 80/100 [00:01<00:00, 42.25it/s]
LR finder stopped early after 80 steps due to diverging loss.
…
