--- Dataset ---

dataset_neighbourhood_sample=0.01
dataset_neighbourhood_min_nodes=8
dataset_max_distance=500

--- Model ---

gnnuf_model_v0-11-1

GAE(
  (encoder): SimpleSparseGINEEncoder(
    (onehot_enc): Sequential(
      (0): Linear(in_features=1, out_features=128, bias=True)
      (1): LeakyReLU(negative_slope=0.01)
      (2): Linear(in_features=128, out_features=64, bias=True)
      (3): TopK(
        (postact_fn): ReLU()
      )
    )
    (gineconv_1_lin): Sequential(
      (0): Linear(in_features=64, out_features=128, bias=True)
      (1): LeakyReLU(negative_slope=0.01)
      (2): Linear(in_features=128, out_features=64, bias=True)
      (3): TopK(
        (postact_fn): ReLU()
      )
    )
    (gineconv_1): GINEConv(nn=Sequential(
      (0): Linear(in_features=64, out_features=128, bias=True)
      (1): LeakyReLU(negative_slope=0.01)
      (2): Linear(in_features=128, out_features=64, bias=True)
      (3): TopK(
        (postact_fn): ReLU()
      )
    ))
    (gineconv_2_lin): Sequential(
      (0): Linear(in_features=64, out_features=128, bias=True)
      (1): LeakyReLU(negative_slope=0.01)
      (2): Linear(in_features=128, out_features=64, bias=True)
      (3): TopK(
        (postact_fn): ReLU()
      )
    )
    (gineconv_2): GINEConv(nn=Sequential(
      (0): Linear(in_features=64, out_features=128, bias=True)
      (1): LeakyReLU(negative_slope=0.01)
      (2): Linear(in_features=128, out_features=64, bias=True)
      (3): TopK(
        (postact_fn): ReLU()
      )
    ))
    (post_ltopk): Sequential(
      (0): Linear(in_features=64, out_features=8, bias=True)
      (1): TopK(
        (postact_fn): ReLU()
      )
    )
  )
  (decoder): InnerProductDecoder()
)
learning_rate=0.0001


--- Training ---

Epoch 1, average loss over 280 batches: 1.322342991403171
Epoch 2, average loss over 280 batches: 1.2923406486000333
Epoch 3, average loss over 280 batches: 1.2654947442667825
Epoch 4, average loss over 280 batches: 1.2504989164216178
…
