--- Dataset ---

dataset_neighbourhood_sample=0.01
dataset_neighbourhood_min_nodes=8
dataset_max_distance=500

--- Model ---

gnnuf_model_v0-8-1

GAE(
  (encoder): GINEEncoder(
    (gine_convs): ModuleList(
      (0): GINEConv(nn=Sequential(
        (0): Linear(in_features=1, out_features=2, bias=True)
        (1): ReLU()
        (2): Linear(in_features=2, out_features=4, bias=True)
        (3): ReLU()
        (4): Linear(in_features=4, out_features=8, bias=True)
        (5): ReLU()
      ))
      (1): GINEConv(nn=Sequential(
        (0): Linear(in_features=8, out_features=16, bias=True)
        (1): ReLU()
        (2): Linear(in_features=16, out_features=32, bias=True)
        (3): ReLU()
        (4): Linear(in_features=32, out_features=64, bias=True)
        (5): ReLU()
      ))
      (2): GINEConv(nn=Sequential(
        (0): Linear(in_features=64, out_features=128, bias=True)
        (1): ReLU()
        (2): Linear(in_features=128, out_features=256, bias=True)
        (3): ReLU()
        (4): Linear(in_features=256, out_features=512, bias=True)
        (5): ReLU()
      ))
    )
    (en_linear_post): Linear(in_features=512, out_features=512, bias=True)
  )
  (decoder): InnerProductDecoder()
)
learning_rate=0.0001


--- Training ---

Epoch 1, average loss over 276 batches: 1.2839263094508129
Epoch 2, average loss over 276 batches: 1.2066826029964115
Epoch 3, average loss over 276 batches: 1.1853750365367834
Epoch 4, average loss over 276 batches: 1.162049637756486
Epoch 5, average loss over 276 batches: 1.1384032515511997
…
